…
 38  5 91 59  0 34 28 50 11 35 23 52 10 31 66 57 79 85 32 84 14 89 19 29
 49 97 98 69 20 94 72 77 25 37 81 46 39 65 58 12 88 70 87 36 21 83  9 96
 67 64 47 44] [18 29 64 92 72 87  5 15 12 17 61 76  9 78 80  7 33  6 37 74 79  1 45 28
 60 52 25 39 97 44 16 55 83 49 22 70 47  4 82 94 53 66 26 84 31 63  8 75
 98 57 71 99 86 96 69 24 30 13 40 56 68 95 81 19 38 91 54 32 51 85 11 89
 90 36 65 88 41 14 27 50 20 46 67 35 62  2 59 23 58 43 10  0 73 21 77 42
  3 93 48 34]
Channel_AE(
  (enc): ENC_interCNN(
    (enc_cnn_1): DataParallel(
      (module): SameShapeConv1d(
        (cnns): ModuleList(
          (0): Conv1d(1, 50, kernel_size=(5,), stride=(1,), padding=(2,))
          (1): Conv1d(50, 50, kernel_size=(5,), stride=(1,), padding=(2,))
        )
      )
    )
    (enc_cnn_2): DataParallel(
      (module): SameShapeConv1d(
        (cnns): ModuleList(
          (0): Conv1d(1, 50, kernel_size=(5,), stride=(1,), padding=(2,))
          (1): Conv1d(50, 50, kernel_size=(5,), stride=(1,), padding=(2,))
        )
      )
    )
    (enc_cnn_3): DataParallel(
      (module): SameShapeConv1d(
        (cnns): ModuleList(
          (0): Conv1d(1, 50, kernel_size=(5,), stride=(1,), padding=(2,))
          (1): Conv1d(50, 50, kernel_size=(5,), stride=(1,), padding=(2,))
        )
      )
    )
    (enc_linear_1): DataParallel(
      (module): Linear(in_features=50, out_features=1, bias=True)
    )
    (enc_linear_2): DataParallel(
      (module): Linear(in_features=50, out_features=1, bias=True)
    )
    (enc_linear_3): DataParallel(
      (module): Linear(in_features=50, out_features=1, bias=True)
    )
    (interleaver): Interleaver()
  )
  (dec): DEC_LargeRNN(
    (interleaver): Interleaver()
    (deinterleaver): DeInterleaver()
    (dropout): Dropout(p=0.0, inplace=False)
    (dec1_rnns): ModuleList(
      (0): DataParallel(
        (module): GRU(7, 50, num_layers=2, batch_first=True, bidirectional=True)
      )
      (1): DataParallel(
        (module): GRU(7, 50, num_layers=2, batch_first=True, bidirectional=True)
…
        (module): GRU(7, 50, num_layers=2, batch_first=True, bidirectional=True)
      )
      (2): DataParallel(
        (module): GRU(7, 50, num_layers=2, batch_first=True, bidirectional=True)
      )
      (3): DataParallel(
        (module): GRU(7, 50, num_layers=2, batch_first=True, bidirectional=True)
      )
      (4): DataParallel(
        (module): GRU(7, 50, num_layers=2, batch_first=True, bidirectional=True)
      )
      (5): DataParallel(
        (module): GRU(7, 50, num_layers=2, batch_first=True, bidirectional=True)
      )
    )
    (dec1_outputs): ModuleList(
      (0): DataParallel(
        (module): Linear(in_features=100, out_features=5, bias=True)
      )
      (1): DataParallel(
        (module): Linear(in_features=100, out_features=5, bias=True)
      )
      (2): DataParallel(
        (module): Linear(in_features=100, out_features=5, bias=True)
      )
      (3): DataParallel(
        (module): Linear(in_features=100, out_features=5, bias=True)
      )
      (4): DataParallel(
        (module): Linear(in_features=100, out_features=5, bias=True)
      )
      (5): DataParallel(
        (module): Linear(in_features=100, out_features=5, bias=True)
      )
    )
    (dec2_outputs): ModuleList(
      (0): DataParallel(
        (module): Linear(in_features=100, out_features=5, bias=True)
      )
      (1): DataParallel(
        (module): Linear(in_features=100, out_features=5, bias=True)
      )
      (2): DataParallel(
        (module): Linear(in_features=100, out_features=5, bias=True)
      )
      (3): DataParallel(
        (module): Linear(in_features=100, out_features=5, bias=True)
      )
      (4): DataParallel(
        (module): Linear(in_features=100, out_features=5, bias=True)
      )
      (5): DataParallel(
        (module): Linear(in_features=100, out_features=1, bias=True)
      )
    )
  )
)
====> Epoch: 1 Average loss: 0.70154804  running time 0.7906053066253662
====> Epoch: 1 Average loss: 0.68192965  running time 0.4587748050689697
====> Epoch: 1 Average loss: 0.65032095  running time 0.45374512672424316
====> Epoch: 1 Average loss: 0.62543899  running time 0.45281362533569336
====> Epoch: 1 Average loss: 0.59077430  running time 0.45677781105041504
…
